model/best_model.pth (torch, 3560 bytes, 6 tensors)

lstm_layers.0.weight_ih_l0 f4 [24, 2]
0	0xbf0735c1	-0.52816397
1	0x3ef3cccd	0.47617188
2	0x3f8fc5ff	1.1232299
3	0x3e30200d	0.17199726
4	0xbf01618f	-0.5053949
5	0xbf3ca9e1	-0.73696715
6	0x3e5e1c10	0.21690392
7	0xbf057ef7	-0.5214686
8	0x3ea86b15	0.32894197
9	0xbd2ccfbb	-0.042190295
10	0x3e8e9906	0.27851123
11	0xbb02e6f6	-0.001997409
12	0x3f17a447	0.5923504
13	0x3e0666da	0.13125172
14	0x3f1cf3e9	0.6130968
15	0xbf0cec44	-0.5504801
16	0xbecdc5fc	-0.40190113
17	0xbf1d9870	-0.61560726
18	0x3ee6ae4b	0.4505485
19	0xbf487680	-0.78305817
20	0x3de75ffe	0.11297606
21	0xbf32e4c6	-0.6988033
22	0x3f0fe7d8	0.5621314
23	0xbed9c0df	-0.4252996
24	0x3f2f4ace	0.6847352
25	0x3f11edc1	0.5700341
26	0xbf368d6e	-0.71309555
27	0x3f3c9c0a	0.73675597
28	0x3e1084e2	0.14113191
29	0xbe8f54e9	-0.2799447
30	0xbd860063	-0.065430425
31	0xbe79df50	-0.24401593
32	0x3f237057	0.6384329
33	0xbf6c2b50	-0.9225359
34	0xbf82c6e6	-1.0216949
35	0x3e457ce8	0.19285929
36	0x3e4a7538	0.19771278
37	0x3eed94c7	0.4640257
38	0x3fb858f3	1.4402145
39	0x3ebaf1f8	0.36512733
40	0xbeccc0c2	-0.39990813
41	0xbf44a7ea	-0.76818717
42	0x3e8d1bbb	0.2756022
43	0xbee0c86d	-0.43902913
44	0x3e07d074	0.13263112
45	0xbf1e38dc	-0.6180551
46	0x3ec1a76f	0.37823054
47	0xbe5c1e37	-0.21495901

lstm_layers.0.weight_hh_l0 f4 [24, 6]
0	0xbee6e50b	-0.4509662
1	0xbf745af2	-0.9545127
2	0x3e4180d3	0.18896799
3	0x3fc694c8	1.5514154
4	0x3f743bf2	0.9540397
5	0x3dcd03f8	0.100105226
6	0xbfc52f5a	-1.5405076
7	0xbdef270b	-0.11677369
8	0x3f3cfff9	0.73828083
9	0xbde52c9a	-0.11190148
10	0xbe1a022c	-0.15039891
11	0xbf009499	-0.5022674
12	0xbf619464	-0.8811705
13	0xbd64fe43	-0.055906545
14	0x3eb5ce6c	0.3550905
15	0xbd11f779	-0.0356364
16	0xbf0d7123	-0.5525076
17	0x3ef4f9dd	0.4784688
18	0x3ea0a020	0.31372166
19	0xbf678040	-0.9043007
20	0x3ddbe2fe	0.10736655
21	0x3f060c5b	0.523626
22	0xbdf1192c	-0.11772379
23	0xbf826a9b	-1.0188783
24	0xbf81c417	-1.0137967
25	0xbf1fbada	-0.6239449
26	0x3f1b100b	0.60571355
27	0xbf0448fa	-0.51673853
28	0x3f2ca648	0.67441225
29	0x3f8042dd	1.0020405
30	0x3ffdf6f7	1.9840993
31	0xbfdf3c03	-1.7440189
32	0xbf03782b	-0.51355237
33	0x3e7a146f	0.24421857
34	0x3f82b9e2	1.0212977
35	0xc026f374	-2.6086092
36	0x3f8217e6	1.0163543
37	0x3e65bfb6	0.22436413
38	0x3dee0263	0.11621549
39	0xbf9bad6a	-1.2162297
40	0xbe8afbe5	-0.27145305
41	0xbfa1073c	-1.2580333
42	0xbf89d31e	-1.0767553
43	0x3e316fe8	0.17327845
44	0x3f1a5836	0.6029085
45	0xbc32f88b	-0.010923515
46	0x3e9e13a6	0.30874366
47	0x3f0fa330	0.5610838
48	0xbee3c51f	-0.4448633
49	0x3e85b727	0.26116297
50	0x3e3a9a0e	0.1822283
51	0xbf4a3d26	-0.78999555
52	0xbf0bdc4b	-0.54633015
53	0xbe20afca	-0.15692058
54	0x3f593a8f	0.8485498
55	0xbf7b4a8b	-0.9816062
56	0xbe28c93c	-0.16483015
57	0x3f0f9ada	0.5609566
58	0x3d729ed8	0.059233516
59	0xbfc05c46	-1.502816
60	0xbf72efed	-0.9489735
61	0xbf2f080c	-0.68371654
62	0x3ec8bad0	0.39205027
63	0x3e1ea64e	0.15493128
64	0xbed22db0	-0.41050482
65	0xbe139f21	-0.14416172
66	0xbe948cc2	-0.2901364
67	0x3f924ac7	1.142907
68	0xbce16b61	-0.027517023
69	0xbf34253f	-0.70369333
70	0xbf28fab5	-0.6600755
71	0x3f5f85de	0.8731364
72	0xbedd531b	-0.43227467
73	0x3e75bef4	0.23998624
74	0x3d86aa14	0.065754086
75	0x3dc5cae5	0.0965784
76	0x3f776129	0.9663263
77	0x3f88c9d9	1.0686599
78	0x3f207bb4	0.62688756
79	0xbe387aae	-0.18015549
80	0x3d957de3	0.072994016
81	0x3f37d0f8	0.71803236
82	0x3f1d5935	0.61464244
83	0x3f6a31fc	0.9148252
84	0x3e110c1d	0.14164777
85	0xbdefa7e8	-0.117019475
86	0xbd76313a	-0.06010554
87	0xbd5fd9dd	-0.05465113
88	0x3d82c6a9	0.06385548
89	0xbf02bb5c	-0.5106714
90	0xbe4c40ce	-0.19946596
91	0xbf3eb30f	-0.7449197
92	0xbe98e5d2	-0.2986284
93	0x3f0856c1	0.53257376
94	0xbc577b77	-0.013151995
95	0xbf91e58a	-1.1398175
96	0xbf75b7ab	-0.9598338
97	0xbf8cf24f	-1.1011447
98	0x3f1625e5	0.5865157
99	0x3e738a3f	0.23783205
100	0x3d8e9d26	0.069635674
101	0x3e8c4da8	0.27402997
102	0xbf36c567	-0.7139496
103	0xbf0a258c	-0.5396354
104	0xbdc5c1bf	-0.09656095
105	0x3f05a7fe	0.5220946
106	0xbd97d684	-0.074139625
107	0xbf0f4919	-0.55970913
108	0xbcea77b0	-0.028621525
109	0xbfb96cd2	-1.4486334
110	0x3e812731	0.25225213
111	0x3fe1bdc5	1.7636038
112	0x3f708ca5	0.93964607
113	0xbec2b40d	-0.38027993
114	0xbfc965c1	-1.5734178
115	0xbe2cd3fe	-0.16877744
116	0x3ed88f45	0.42296806
117	0x3e2ee9dd	0.170814
118	0x3eda28d6	0.4260928
119	0xbc6cff8f	-0.014465227
120	0xbf1e28ba	-0.61780894
121	0x3e9f8925	0.3115932
122	0x3ddacb57	0.10683315
123	0xbf12c246	-0.5732769
124	0xbea95c1d	-0.3307809
125	0x3f43a616	0.764253
126	0x3eaf4602	0.342331
127	0xbf73cad9	-0.95231396
128	0x3e9b7cb7	0.30368587
129	0x3e5ea479	0.21742429
130	0x3dbe4214	0.09289947
131	0xbf938080	-1.152359
132	0xbf7e7fae	-0.99413574
133	0xbf92dfe1	-1.1474572
134	0xbe06d7c3	-0.13168244
135	0xbde97447	-0.11399131
136	0x3f32ec18	0.698915
137	0x3f9802af	1.1875819
138	0x3fbdbfd5	1.4824167
139	0xbfa26998	-1.2688475
140	0xbef3ea18	-0.47639537
141	0x3ec79a0a	0.3898471
142	0x3f751169	0.9572969
143	0xc00aa449	-2.1662772

lstm_layers.0.bias_ih_l0 f4 [24]
0	0x3f81255e	1.0089529
1	0x3ec934ee	0.39298195
2	0xbeb40511	-0.35160115
3	0xbf21b55d	-0.63167363
4	0x3ea0764d	0.31340256
5	0x3e908187	0.28223822
6	0xbe72a7c1	-0.23696806
7	0xbee75882	-0.45184714
8	0xbf2e0df8	-0.67990065
9	0x3e4364a7	0.19081365
10	0x3da65351	0.0812136
11	0xbf08b634	-0.5340302
12	0xbef5473b	-0.47905907
13	0xbe607f84	-0.21923643
14	0x3e121145	0.142644
15	0x3e47c456	0.1950849
16	0x3e66c295	0.22535165
17	0x3ec401c5	0.382826
18	0x3fb456c0	1.4088974
19	0x3e83b75c	0.2572583
20	0xbec16f2e	-0.37780136
21	0xbdf553fd	-0.1197891
22	0x3f1dec98	0.6168914
23	0x3ebfbeb7	0.3745019

lstm_layers.0.bias_hh_l0 f4 [24]
0	0x3fa746fa	1.3068535
1	0x3eb3e750	0.35137415
2	0xbeeb23d2	-0.45925766
3	0xbf0b125a	-0.5432488
4	0x3ea7b66d	0.32756367
5	0x3e474167	0.19458543
6	0xbeb407f8	-0.3516233
7	0xbe9e6beb	-0.3094171
8	0xbea878da	-0.32904702
9	0xbea203f8	-0.31643653
10	0xbd59db54	-0.053187683
11	0xbf360996	-0.71108377
12	0xbe7146c3	-0.2356215
13	0xbd165a5e	-0.036707275
14	0x3cc76c90	0.024343759
15	0x3e4cd302	0.20002368
16	0x3e95bb47	0.29244444
17	0x3e490837	0.1963204
18	0x3f7b90a5	0.98267585
19	0x3eaa6464	0.33279717
20	0xbf41608c	-0.75537944
21	0xbd7b3f9e	-0.061339967
22	0x3d8d27c9	0.06892354
23	0x3d9c256c	0.07624325

norm_layers.0.weight f4 [6]
0	0x4038b8a8	2.8862705
1	0x3f8ffd45	1.1249167
2	0x3f2d2acb	0.6764342
3	0x3fde22cf	1.7354373
4	0x3f540014	0.8281262
5	0x40271bf6	2.6110816

dense_layers.0.weight f4 [1, 6]
0	0xbff89d09	-1.9422923
1	0xbee6d495	-0.45084062
2	0x3db6b6ed	0.08921609
3	0x3f556dac	0.8337047
4	0x3d9ccbbf	0.07656049
5	0x3fc894c2	1.5670397
