model/best_model.pth (torch, 2536 bytes, 4 tensors)

dense_layers.0.weight f4 [8, 4]
-0.48069116 0.7241291 -0.7555652 -1.1215643 -0.50931835 0.7494083 -0.7204798 -0.8993189
-0.070953324 -0.27849656 0.78996354 0.6802795 -0.32741243 -0.0969242 0.86249876 1.1644822
0.20151584 -0.33606777 0.7330514 0.297018 0.1523315 -0.31025332 0.37609613 1.4039401
-0.5478963 0.88580203 -0.6934919 -1.2697818 0.2560655 -0.09073892 -0.60351515 -0.72093946
00000000: 271d f6be 8660 393f b96c 41bf 6b8f 8fbf
00000010: b062 02bf 39d9 3f3f 5d71 38bf c339 66bf
00000020: fa4f 91bd 1a97 8ebe 0d3b 4a3f cc26 2e3f
00000030: 9aa2 a7be 3280 c6bd b8cc 5c3f c10d 953f
00000040: 2b5a 4e3e 1311 acbe 42a9 3b3f be12 983e
00000050: cafc 1b3e 86d9 9ebe ac8f c03e 4fb4 b33f
00000060: ef42 0cbf ecc3 623f af88 31bf 3688 a2bf
00000070: 041b 833e 54d5 b9bd f87f 1abf 7d8f 38bf

dense_layers.0.bias f4 [8]
0.10734937 0.18907551 -0.6737581 -0.4803615 1.3536044 -0.66324115 0.17400594 1.0851513
00000000: fdd9 db3d 039d 413e 697b 2cbf f1f1 f5be
00000010: e942 ad3f 2cca 29bf 9d2e 323e 3de6 8a3f

dense_layers.3.weight f4 [3, 8]
0.9268239 1.1098257 -1.019973 -1.105949 -1.462171 -1.1717231 0.9021851 -0.18177384
-0.948791 -1.0718583 -0.9062488 -0.54661334 0.3607548 -1.2086829 -0.964254 0.8945415
-0.2204976 -0.41147348 1.2373115 0.8382372 0.18172666 0.7852064 -0.23530681 -1.1343027
00000000: 5544 6d3f c50e 8e3f 7a8e 82bf bd8f 8dbf
00000010: 6b28 bbbf 06fb 95bf 9af5 663f ec22 3abe
00000020: f8e3 72bf a732 89bf ecff 67bf daee 0bbf
00000030: dab4 b83e 1fb6 9abf 5ad9 76bf ac00 653f
00000040: 1fca 61be a7ac d2be 3960 9e3f b796 563f
00000050: 8e16 3a3e 4903 493f 45f4 70be d530 91bf

dense_layers.3.bias f4 [3]
-0.56617165 1.0772535 -0.8039854
00000000: a0f0 10bf 71e3 893f fdd1 4dbf
